onnx/model_7x7_4_True.onnx (onnx, 22637 bytes, 6 tensors)

StatefulPartitionedCall/sequential/dense_2/MatMul/ReadVariableOp:0 f4 [49, 3]
-0.921538 1.7307297 -1.3868355 -2.210216 1.4114745 -1.1796541 -1.4013197 0.83318585
-0.72531575 -0.4101886 -1.479183 1.1346151 -0.6864232 -1.3766283 1.5101868 -0.40249115
-1.6723771 1.7729119 -0.67128545 1.0382714 -1.1824448 -0.58580613 -1.478674 1.0556188
-0.91985524 -1.6857214 1.1427903 -1.1307856 -1.3756776 0.9811728 -0.53456146 -2.0783725
2.1354485 -1.0767918 1.26409 -0.6887591 -1.5407234 0.37743133 -0.06499295 -2.0386353
-0.9256198 1.3148018 -1.6654872 -1.0753767 0.840873 -0.76184076 -1.1978918 0.9333773
-1.9017955 -0.39528033 0.27375862 -0.174971 1.7196597 -1.8769219 -0.62316734 -1.4091252
1.1490273 -0.3905588 -1.710515 1.2585 -1.1902503 1.2605171 -1.0555227 -1.2163954
0.80983746 -1.23105 -2.2495394 0.7546394 -0.5179366 -1.9116135 0.4232345 -0.12130016
-1.3990133 0.95425004 -0.67809546 -2.1808598 -0.38115275 0.4988607 -0.43859902 1.7154557
-1.5681971 -0.5759225 -1.5673363 1.8394408 -0.34677696 1.3458469 -1.3588874 -0.4189265
-1.0539086 1.2697583 -1.3963784 1.1810113 -1.0627578 -1.3621749 -0.7891682 0.9943598
-2.2743256 -0.23457052 0.6706909 -1.4422742 -0.5668875 0.84857434 -1.8546889 -0.8623435
0.9712042 -1.3048991 1.0541112 -0.77383167 -0.3585872 -1.439526 1.6562252 -1.542744
0.86100376 -0.48926792 -1.5028949 -0.7808353 0.7342046 -1.6188298 -0.3677064 0.72469234
-0.6354245 -1.5177149 1.4792932 -1.9945469 0.7845741 -0.7193095 -1.0550853 1.0505195
-1.0306087 -1.6781418 -0.27468416 0.0670058 -2.411602 0.95921826 -0.3409516 -1.2710656
-0.71006405 0.89801145 -0.84689707 -2.058361 1.7229388 -2.092966 -0.05679253 0.08633834
-1.8479124 0.49680236 -0.1771117
00000000: eae9 6bbf 8d88 dd3f d383 b1bf 2e74 0dc0
00000010: 32ab b43f e8fe 96bf 725e b3bf ab4b 553f
00000020: 4bae 39bf 3d04 d2be de55 bdbf 113b 913f
00000030: 6eb9 2fbf 5b35 b0bf cd4d c13f 5213 cebe
00000040: 7410 d6bf c7ee e23f 5dd9 2bbf 14e6 843f
00000050: 5a5a 97bf 64f7 15bf 3145 bdbf 841e 873f
00000060: a27b 6bbf b8c5 d7bf f446 923f 95bd 90bf
00000070: 3416 b0bf 242e 7b3f 05d9 08bf 0e04 05c0
00000080: 30ab 0840 50d4 89bf b3cd a13f 8452 30bf
00000090: 6d36 c5bf ae3e c13e 061b 85bd 0079 02c0
000000a0: 6bf5 6cbf 6d4b a83f af2e d5bf f2a5 89bf
000000b0: 7443 573f ff07 43bf 8554 99bf d1f1 6e3f
000000c0: 096e f3bf 2f62 cabe 172a 8c3e 992b 33be
000000d0: cf1d dc3f fa3e f0bf e587 1fbf 375e b4bf
000000e0: 5413 933f 53f7 c7be 28f2 dabf 8716 a13f
000000f0: 1f5a 98bf a058 a13f 5e1b 87bf d8b2 9bbf
00000100: 8251 4f3f 0c93 9dbf 74f8 0fc0 0c30 413f
00000110: 7e97 04bf c0af f4bf 31b2 d83e 386c f8bd
00000120: de12 b3bf bb49 743f aa97 2dbf 3593 0bc0
00000130: 7426 c3be ab6a ff3e 0d90 e0be 0d94 db3f
00000140: afba c8bf a86f 13bf 7a9e c8bf cc72 eb3f
00000150: c08c b1be b644 ac3f 06f0 adbf 897d d6be
00000160: 7ae6 86bf 7187 a23f 87bc b2bf 612b 973f
00000170: 7308 88bf bf5b aebf ed06 4abf 5d8e 7e3f
00000180: 8d8e 11c0 4133 70be 66b2 2b3f 719c b8bf
00000190: 8a1f 11bf 2b3c 593f 7266 edbf 8bc2 5cbf
000001a0: d7a0 783f ef06 a7bf 1eed 863f d519 46bf
000001b0: be98 b7be 6342 b8bf 30ff d33f a378 c5bf
000001c0: be6a 5c3f 5381 fabe dc5e c0bf d2e4 47bf
000001d0: d5f4 3b3f d135 cfbf 0344 bcbe 7085 393f
000001e0: 2eab 22bf 7b44 c2bf 7b59 bd3f 504d ffbf
000001f0: d9d9 483f ab24 38bf 090d 87bf 6c77 863f
00000200: fcea 83bf 5acd d6bf 67a3 8cbe 563a 893d
00000210: b057 1ac0 548f 753f 3591 aebe 47b2 a2bf
00000220: c2c6 35bf 14e4 653f 3fce 58bf 30bc 03c0
00000230: 4289 dc3f 28f3 05c0 499f 68bd 28d2 b03d
00000240: 6588 ecbf e15c fe3e c55c 35be

StatefulPartitionedCall/sequential/dense_2/BiasAdd/ReadVariableOp:0 f4 [3]
-3.1153755 0.027149705 0.042101532
00000000: 5062 47c0 0f69 de3c a872 2c3d

StatefulPartitionedCall/sequential/dense_1/MatMul/ReadVariableOp:0 f4 [49, 49]
0.51593447 -0.47288656 -0.018044923 0.091194764 -0.40620387 -0.027003523 0.24035385 0.554776
0.00041979318 -1.097347 -0.4434406 0.48148227 -0.29103464 0.08010599 0.14962779 0.42994997
0.006916225 0.09279888 0.7013033 -0.06008373 -0.5842041 -0.005327828 0.66085625 -0.88683784
-0.22817823 -0.28441146 0.13379718 0.28485906 0.32647264 0.21933806 -0.47684786 0.10011561
0.3170861 -0.332784 -0.9451631 0.17624292 0.6941872 -0.28669125 0.14292991 0.20575824
0.014935615 -0.34782296 -0.27905506 0.17681943 -0.46299428 0.20294021 0.12600492 0.06520953
-0.09148865 -0.56403595 0.021361383 -0.18962355 -0.59890777 0.52400684 -0.0609359 -0.08118427
0.05705966 -0.15614656 -0.12552156 -0.5884993 0.10003972 -0.16132325 0.20647034 0.115240075
0.014730783 0.5403309 -0.48642272 -0.041076273 -0.112391725 -0.41383502 0.13995719 -0.80212635
-0.25932667 -0.04316283 0.38681436 0.42278528 -0.09787068 -0.2874769 -0.19365449 -0.42546204
0.22218753 -0.38427642 0.044473134 0.472477 0.21427698 -0.7263659 -0.37492287 0.31978628
-0.059157554 -0.046613384 0.15289284 -0.19081053 0.25168586 0.2901557 0.100341275 -0.26407912
-0.10749893 0.22602703 -0.28104267 0.46534312 -0.046780687 0.47859603 -0.44921657 0.11933862
0.19444948 -0.1824331 -0.8534618 0.12216154 -0.3928225 0.12335172 -0.0869028 0.008907143
-0.58179295 -0.041337926 -0.010587253 -0.67926717 0.153129 0.62132215 -0.36021236 0.23264569
0.22681753 -0.12868613 0.1893059 -0.09615551 0.31767538 -0.17429502 -0.39494726 0.2659947
-0.12953424 0.41288608 -0.28251955 0.17816518 -0.4127716 -0.1501272 0.3808871 0.18360604
0.1769843 -0.22830789 0.07567867 -0.66982174 0.20791624 0.32719302 -0.4065807 -0.07469476
-0.05611981 -0.2761496 -0.12747407 -0.3073395 0.17623417 0.34816426 -0.043012872 -0.25411835
0.6909851 0.21157813 0.43764797 0.55664986 0.38253105 -0.06418816 -0.5452216 0.21985981
0.014787828 0.28938922 0.5253815 0.4615142 -0.19335647 0.5245014 0.034483638 0.573979
0.31208783 0.5153511 0.16335204 0.36480758 -0.023866849 -0.5343847 0.09059662 -0.18195005
0.27463737 0.43696785 -0.031923603 -0.0034069282 0.19115064 0.100769885 0.30540267 0.72210014
0.071724914 -0.2542899 0.12668587 -0.05775028 -0.35919806 -0.25347543 -0.1288724 0.063076146
-0.022941926 0.5852619 0.082621895 0.10109282 0.67250323 -0.20637695 0.17080031 0.201201
0.30744854 0.15069136 0.15292245 0.05784856 -0.5064578 0.089931756 0.36917365 0.04699566
0.076907404 -0.08786755 -0.56410605 -0.3442777 0.16748144 0.071358174 -0.0060350318 0.4594884
-0.50972414 -0.5003292 0.051328816 -0.16118376 -0.15164967 0.026279327 -0.14745961 -0.18857582
0.25206694 -0.42452526 0.11487742 0.333783 -0.12629473 0.2479538 -0.18159546 0.09123424
-0.54176265 0.5406814 0.24152419 -0.30954495 0.22438297 -0.13481891 0.5149375 0.27341583
-0.47129723 0.44519392 0.25454795 0.20731843 0.22952531 -0.21624942 0.11398461 0.05194794
-0.16417587 -0.12624863 -0.046263248 -0.33258235 0.43689227 -0.3725641 -0.29007748 0.2015002
00000000: 4814 043f 301e f2be f2d2 93bc 52c4 ba3d
00000010: f4f9 cfbe 7e36 ddbc 521f 763e cd05 0e3f
00000020: b017 dc39 de75 8cbf a50a e3be d884 f63e
00000030: 7e02 95be 9c0e a43d 0738 193e 6722 dc3e
00000040: 80a1 e23b 570d be3d 9d88 333f 5b1a 76bd
00000050: 668e 15bf 1095 aebb e02d 293f ce07 63bf
00000060: 8ea7 69be 619e 91be 2102 093e 0cd9 913e
00000070: 6c27 a73e 289a 603e 6725 f4be 6a09 cd3d
00000080: 1c59 a23e aa62 aabe 35f6 71bf 0679 343e
00000090: 41b6 313f 32c9 92be 385c 123e 4ab2 523e
000000a0: 82b4 743c da15 b2be 4ee0 8ebe 2710 353e
000000b0: 960d edbe 8fcf 4f3e 6f07 013e 938c 853d
000000c0: 675e bbbd a964 10bf 11fe ae3c ad2c 42be
000000d0: 0552 19bf 5025 063f ec97 79bd f043 a6bd
000000e0: 64b7 693d e2e4 1fbe b988 00be e4a7 16bf
000000f0: a0e1 cc3d ec31 25be f66c 533e fd02 ec3d
00000100: 6259 713c 2053 0a3f 660c f9be 983f 28bd
00000110: a22d e6bd 2fe2 d3be f050 0f3e 2758 4dbf
00000120: 77c6 84be 82cb 30bd 880c c63e 5077 d83e
00000130: 6c70 c8bd 2c30 93be 5d4d 46be 29d6 d9be
00000140: 2185 633e e1bf c4be 7629 363d 81e8 f13e
00000150: 6d6b 5b3e 1ef3 39bf e4f5 bfbe 07bb a33e
00000160: 314f 72bd aded 3ebd f18f 1c3e d663 43be
00000170: f8dc 803e 4a8f 943e ba7f cd3d 6135 87be
00000180: 6628 dcbd a173 673e d3e4 8fbe 7441 ee3e
00000190: 1b9d 3fbd 8a0a f53e b7ff e5be ce67 f43d
000001a0: c41d 473e becf 3abe 797c 5abf d42f fa3d
000001b0: 0820 c9be d49f fc3d 18fa b1bd 44ef 113c
000001c0: 62f0 14bf f551 29bd 2876 2dbc 74e4 2dbf
000001d0: d9cd 1c3e f80e 1f3f c16d b8be ac3a 6e3e
000001e0: db42 683e 4cc6 03be 68d9 413e 2eed c4bd
000001f0: 59a6 a23e 657a 32be 8736 cabe 7530 883e
00000200: a0a4 04be ce65 d33e 67a6 90be ef70 363e
00000210: cd56 d3be f2ba 19be a203 c33e 3903 3c3e
00000220: 5f3b 353e 8bc9 69be 6bfd 9a3d 7079 2bbf
00000230: ffe7 543e d885 a73e 582b d0be 91f9 98bd
00000240: e3dd 65bd 7b63 8dbe 9088 02be 9a5b 9dbe
00000250: bb76 343e 9642 b23e 442e 30bd cd1b 82be
00000260: 66e4 303f f0a7 583e 6513 e03e 9b80 0e3f
00000270: 1cdb c33e 1575 83bd a593 0bbf ee22 613e
00000280: a548 723c d32a 943e 677f 063f 974b ec3e
00000290: 3dff 45be b945 063f b73e 0d3d 4af0 123f
000002a0: fac9 9f3e 0dee 033f c245 273e 0fc8 ba3e
000002b0: 6984 c3bc 70cd 08bf b98a b93d 1d51 3abe
000002c0: 459d 8c3e 40ba df3e 53c2 02bd c546 5fbb
000002d0: febc 433e 7160 ce3d bd5d 9c3e 8edb 383f
000002e0: 83e4 923d 4932 82be f1b9 013e 8f8b 6cbd
000002f0: cfe8 b7be 88c7 81be 20f7 03be 112e 813d
00000300: b5f0 bbbc b9d3 153f ab35 a93d c109 cf3d
00000310: 2c29 2c3f 7b54 53be 47e6 2e3e a307 4e3e
00000320: e569 9d3e d64e 1a3e b497 1c3e 9df2 6c3d
00000330: 38a7 01bf 242e b83d 5404 bd3e 857e 403d
00000340: a181 9d3d e7f3 b3bd 4169 10bf 2b45 b0be
00000350: 4180 2b3e 3c24 923d 84c1 c5bb 1042 eb3e
00000360: 487d 02bf 9315 00bf 2a3e 523d 5b0d 25be
00000370: 0d4a 1bbe be47 d73c a7ff 16be 051a 41be
00000380: eb0e 813e 605b d9be da44 eb3d 9be5 aa3e
00000390: 6853 01be 9ae7 7d3e 29f4 39be 04d9 ba3d
000003a0: f5b0 0abf 196a 0a3f 1e52 773e ad7c 9ebe
000003b0: a6c4 653e f80d 0abe f2d2 033f 29fd 8b3e
000003c0: df4d f1be 75f0 e33e 1c54 823e 484b 543e
000003d0: af08 6b3e 7d70 5dbe c370 e93d 5dc7 543d
000003e0: b81d 28be 5247 01be 887e 3dbd 3c48 aabe
000003f0: 58b0 df3e b9c0 bebe 0985 94be 1256 4e3e

StatefulPartitionedCall/sequential/dense_1/BiasAdd/ReadVariableOp:0 f4 [49]
-0.043770753 -0.28198966 -0.10152638 -0.1380717 -0.14629768 -0.43243155 -0.15690708 -0.11363266
-0.014284184 -0.23110288 -0.18491068 -0.30531257 0.012807448 -0.32606825 0.009402144 0.022891076
-0.10614665 -0.038827773 -0.27400795 -0.26324147 0.093306094 -0.06121859 0.3943901 0.05352931
-0.14454085 0.07788803 -0.5747247 -0.561306 -0.00025805258 -0.5356211 -0.014263849 -0.073787734
-0.123551816 -0.07668757 0.06374345 0.17406283 0.020645745 0.10741967 -0.0059225666 -0.0034420472
0.0010839971 0.18593282 -0.2282684 -0.025236463 0.023270847 0.003730093 -0.082988165 0.017599748
-0.06729148
00000000: f648 33bd f360 90be 10ed cfbd ab62 0dbe
00000010: 0fcf 15be ab67 ddbe 40ac 20be 3db8 e8bd
00000020: 3608 6abc 3ca6 6cbe 3a59 3dbe ee51 9cbe
00000030: 55d6 513c 6bf2 a6be 730b 1a3c 1186 bb3c
00000040: 6a63 d9bd df09 1fbd c54a 8cbe 96c7 86be
00000050: 4417 bf3d 58c0 7abd 80ed c93e 8d41 5b3d
00000060: 8402 14be c283 9f3d 2821 13bf c0b1 0fbf
00000070: 3b4b 87b9 771e 09bf ebb2 69bc 061e 97bd
00000080: bc08 fdbd 5f0e 9dbd ed8b 823d 873d 323e
00000090: 4421 a93c d8fe db3d 1712 c2bb f893 61bb
000000a0: e814 8e3a 2c65 3e3e 31bf 69be b3bc cebc
000000b0: 81a2 be3c 9374 743b b3f5 a9bd 592d 903c
000000c0: 1ed0 89bd

StatefulPartitionedCall/sequential/dense/MatMul/ReadVariableOp:0 f4 [49, 49]
1.1403612 0.36331463 0.59202355 -0.2900339 0.11912414 -0.3787734 0.2543383 -1.2694751
-1.074839 -0.09296175 -0.83945435 0.13569948 0.6930868 0.38928938 0.07332818 -0.76544136
-0.016301427 -1.1768984 -0.47021848 -0.76063186 0.16325116 0.15552825 0.38035113 0.25166547
0.47991797 0.19091208 -2.497831 -1.2116071 0.6064517 1.076374 0.1385676 -0.44409367
0.50449765 0.31475788 0.9152934 0.41141468 0.38587415 -0.03326529 1.8631487 -0.08880938
1.0641367 -0.14820811 -0.1842387 -0.10700506 0.34462836 -0.13157235 -0.18501201 0.13284308
1.6081924 0.61436 0.48373744 0.2755331 -0.49791962 0.18280567 -0.13734847 0.2037976
-0.14762266 -0.8657149 -0.09348104 0.01509518 -0.3113196 0.047132052 -0.13492495 -0.22975387
0.5166976 -0.13501665 -0.1649415 -0.22616453 0.39930934 -0.16186766 0.20892976 0.06946499
0.028246174 -0.09999667 0.045875087 0.112625144 0.5260184 -0.15260254 -0.028251741 -0.08314318
0.5557782 -0.55655074 -0.16021132 0.8000339 -1.1656573 -0.23120168 0.3260256 -0.29147598
0.83535206 0.19573525 -0.4991376 -0.35075372 -0.5491464 0.012858883 -1.1549543 0.027577857
0.1292083 0.42644957 0.41574457 0.11941938 -0.62713027 -0.9524684 -1.0430998 0.27703083
1.3033996 -0.62654006 0.25225416 -1.5949296 0.11981202 -0.3036942 0.3451361 0.4933118
0.56869924 0.15786178 0.45219252 0.69503796 -0.12691545 -0.61890596 -0.95940703 -0.5141234
0.69781387 -0.8172492 -0.54028445 0.48693126 0.2787449 1.1189417 -1.0767066 0.34226665
-0.3609022 0.20230338 0.13763869 0.66271365 0.037366286 -0.43762377 0.20890813 -0.61988
-1.076747 0.56208897 0.038221683 -0.16672468 0.18734351 0.35618687 -0.38262278 -0.041719362
0.40818068 1.0943266 -0.11232901 -0.85366106 0.009638371 -0.13535352 -0.17026207 0.98327446
0.5519726 0.34856057 0.34504253 -1.8176531 0.14521448 -1.2597586 -0.025899824 0.6254687
0.993467 1.0943451 0.076309994 -0.25766346 0.44621035 -0.635576 0.05359377 -0.15194201
0.5863206 -0.010858991 0.57429093 0.32396305 -0.032300975 0.085887395 -0.55279505 -0.87585515
-0.12097795 -0.5032818 0.051198546 -0.41615215 0.10723748 0.2830324 0.38631192 0.22070724
-0.37621012 0.4702576 -0.33582625 1.2095168 -0.75995123 -0.55451006 0.4631164 -0.0337853
0.2903032 0.22421582 -0.6868997 0.016627727 -0.56914675 1.2416334 0.4398782 0.19959882
-0.4350681 0.26219207 -0.08761649 0.49718156 0.11368029 -0.16921173 -0.7137767 0.10428239
-0.15324749 0.5579228 0.4795713 -1.0556712 -0.9036792 -0.685457 -0.7427704 -0.57659405
0.79634494 0.092813484 0.48454285 0.15021995 -0.060669612 -0.7205971 -0.16453646 -0.26197013
0.22550765 -0.36334896 0.20280051 -0.76725566 -0.28538662 0.5999583 0.26174435 0.03395715
-0.25727406 -0.11148326 0.25865915 0.37515032 0.81288385 0.64814013 0.16733228 0.11562623
-1.2297277 0.300733 0.56166816 0.030332271 1.1975962 0.5457739 0.5720313 -0.1656822
-0.21237348 0.30140403 0.01141809 0.93180686 -0.93680215 -0.09354364 0.0687121 0.73418367
00000000: 5bf7 913f 6004 ba3e db8e 173f 537f 94be
00000010: 5bf7 f33d 96ee c1be a138 823e 297e a2bf
00000020: 5394 89bf bb62 bebd 7be6 56bf cef4 0a3e
00000030: 236e 313f f050 c73e 162d 963d f7f3 43bf
00000040: 928a 85bc 9ba4 96bf 7ac0 f0be c5b8 42bf
00000050: 502b 273e cc42 1f3e 62bd c23e 4cda 803e
00000060: cfb7 f53e 757e 433e 77dc 1fc0 f115 9bbf
00000070: 6b40 1b3f a0c6 893f aae4 0d3e 3f60 e3be
00000080: c226 013f f227 a13e ab50 6a3f f2a4 d23e
00000090: 4c91 c53e 2f41 08bd a87b ee3f b1e1 b5bd
000000a0: a235 883f dec3 17be 12a9 3cbe 7825 dbbd
000000b0: 2173 b03e e7ba 06be ca73 3dbe 0408 083e
000000c0: 40d9 cd3f b246 1d3f 6fac f73e ad12 8d3e
000000d0: 52ef febe 6931 3b3e 14a5 0cbe 51b0 503e
000000e0: 652a 17be 7e9f 5dbf fd72 bfbd c651 773c
000000f0: 4865 9fbe 8a0d 413d c429 0abe 9944 6bbe
00000100: 4b46 043f ce41 0abe 6de6 28be ad97 67be
00000110: 4672 cc3e a3c0 25be aff1 553e a943 8e3d
00000120: 8564 e73c 0ecb ccbd 84e7 3b3d 03a8 e63d
00000130: 24a9 063f d743 1cbe 3270 e7bc f946 aabd
00000140: 7b47 0e3f 1c7a 0ebf 700e 24be 06cf 4c3f
00000150: 4234 95bf 22c0 6cbe d4ec a63e 573c 95be
00000160: a2d9 553f d26e 483e f78e ffbe fe95 b3be
00000170: dc94 0cbf 10ae 523c 8bd5 93bf f5ea e13c
00000180: 2e4f 043e 9957 da3e 79dc d43e 2692 f43d
00000190: 9c8b 20bf f8d4 73bf 4b84 85bf fcd6 8d3e
000001a0: ccd5 a63f ee64 20bf 7527 813e a726 ccbf
000001b0: 0160 f53d ce7d 9bbe aeb5 b03e 5d93 fc3e
000001c0: 4696 113f 85a6 213e c785 e73e 02ee 313f
000001d0: 20f6 01be 9f70 1ebf b39b 75bf 979d 03bf
000001e0: eea3 323f 3e37 51bf 1550 0abf 0e4f f93e
000001f0: a7b7 8e3e 7b39 8f3f 86d1 89bf 933d af3e
00000200: 2cc8 b8be 9e28 4f3e 28f1 0c3e 9aa7 293f
00000210: 640d 193d 3910 e0be 03ec 553e 75b0 1ebf
00000220: d8d2 89bf 10e5 0f3f 578e 1c3d e0b9 2abe
00000230: fad6 3f3e 205e b63e 22e7 c3be ece1 2abd
00000240: 0ffd d03e e512 8c3f c10c e6bd 8889 5abf
00000250: 42ea 1d3c 1d9a 0abe 2e59 2ebe e0b7 7b3f
00000260: 144e 0d3f 8876 b23e 6aa9 b03e dba8 e8bf
00000270: 1bb3 143e c53f a1bf de2b d4bc b71e 203f
00000280: da53 7e3f 8013 8c3f 6a48 9c3d 77ec 83be
00000290: af75 e43e 1cb5 22bf 2485 5b3d b096 1bbe
000002a0: 1b19 163f e9e9 31bc bb04 133f 7cde a53e
000002b0: 074e 04bd bbe5 af3d fa83 0dbf 0b38 60bf
000002c0: 4ac3 f7bd 13d7 00bf 91b5 513d e511 d5be
000002d0: 539f db3d 9fe9 903e adca c53e 1401 623e
000002e0: 9d9e c0be 9bc5 f03e 6bf1 abbe 72d1 9a3f
000002f0: 2a8c 42bf 5ff4 0dbf 981d ed3e 7462 0abd
00000300: 9fa2 943e d598 653e a9d8 2fbf df36 883c
00000310: 9ab3 11bf d8ed 9e3f b737 e13e a263 4c3e
00000320: 3fc1 debe 0a3e 863e 4670 b3bd 958e fe3e
00000330: 36d1 e83d d745 2dbe 12ba 36bf 0192 d53d
00000340: e9ec 1cbe 07d4 0e3f 5f8a f53e 3c20 87bf
00000350: 8557 67bf 1c7a 2fbf 3326 3ebf ab9b 13bf
00000360: 43dd 4b3f ff14 be3d 0016 f83e 42d3 193e
00000370: b380 78bd 0d79 38bf 3f7c 28be f320 86be
00000380: 7aeb 663e e008 babe f0aa 4f3e de6a 44bf
00000390: 321e 92be de96 193f 5b03 863e a716 0b3d
000003a0: 6db9 83be 5651 e4bd f96e 843e b413 c03e
000003b0: 2819 503f 83ec 253f 2759 2b3e 72cd ec3d
000003c0: b867 9dbf adf9 993e 7cc9 0f3f 627b f83c
000003d0: d54a 993f d7b7 0b3f a570 123f 98a8 29be
000003e0: 6f78 59be a151 9a3e f112 3b3c e58a 6e3f
000003f0: 44d2 6fbf cf93 bfbd eeb8 8c3d 76f3 3b3f

StatefulPartitionedCall/sequential/dense/BiasAdd/ReadVariableOp:0 f4 [49]
-0.30161726 0.2455702 -0.014994745 -0.28032723 -0.16768216 0.15886374 0.12853661 -0.014462827
-0.3388235 0.04194945 -0.08042798 -0.25624695 0.12435896 -0.043817468 0.094538465 -0.22249074
-0.048883162 -0.3151064 0.26585734 0.34454453 0.1091492 0.117833406 0.021007815 -0.14149496
0.021375757 0.19553591 0.28846037 0.032890517 -0.23699977 -0.0950166 -0.0007821218 -0.013639071
-0.062419347 0.043605678 0.1673997 0.012595935 0.15563786 -0.16273692 0.04063969 0.1287243
-0.0756845 -0.02638411 -0.034274466 0.043635335 0.25768632 0.01735654 -0.566436 0.26716483
-0.2857214
00000000: 946d 9abe c176 7b3e 85ac 75bc 0d87 8fbe
00000010: dfb4 2bbe 2dad 223e 1a9f 033e 7ef5 6cbc
00000020: 467a adbe 30d3 2b3d 6db7 a4bd cd32 83be
00000030: e9af fe3d f279 33bd 629d c13d 9dd4 63be
00000040: b639 48bd a055 a1be 741e 883e 2468 b03e
00000050: 9e89 df3d a452 f13d 9518 ac3c 0ee4 10be
00000060: 361c af3c 913a 483e 14b1 933e 35b8 063d
00000070: 11b0 72be 1098 c2bd 4e07 4dba 6976 5fbc
00000080: 6eab 7fbd de9b 323d d46a 2b3e 2e5f 4e3c
00000090: 885f 1f3e 82a4 26be ce75 263d 4ed0 033e
000000a0: 7a00 9bbd 7d23 d8bc 6263 0cbd f7ba 323d
000000b0: 76ef 833e 4d2f 8e3c f301 11bf d4c9 883e
000000c0: 134a 92be
